complete_verifier/assignment4/fashion_mnist_model.pth (torch, 830800 bytes, 8 tensors)

0.weight f4 [16, 1, 3, 3]
0.38260743 -0.44944003 -0.4673511 0.23128599 0.11329125 -0.35632303 0.07289125 -0.19183546
-0.14044511 0.0072236047 0.29942167 0.031227252 0.1271792 -0.10669363 -0.07726623 -0.5966189
-0.4474949 0.28497097 -0.12948203 -0.11124434 -0.5269712 0.18833573 0.26230025 -0.1717159
0.055222847 0.067168295 0.35362443 0.16243258 0.40986496 -0.12741129 0.27223274 -0.038017184
-0.37286294 -0.0552988 -0.42696413 0.19177201 0.36220607 0.05792256 -0.28348416 0.17345108
-0.36778998 0.060276154 -0.45672733 0.14294124 0.33739135 -0.23572883 -0.21687378 0.13545282
0.38877523 0.20854995 -0.13143888 0.11168523 0.23564366 0.11335468 0.03683401 0.1389703
-0.16873446 -0.165048 -0.008574241 -0.2349075 -0.2587108 -0.36441517 -0.3808896 -0.0020174081
0.32532018 0.31915703 -0.39668807 -0.43520495 -0.0032784594 0.2620972 -0.401062 0.2305738
-0.07087209 0.29051536 -0.3180952 0.29829025 -0.025600934 -0.445961 0.16072217 0.18285833
-0.098528706 0.041600343 0.30358863 -0.4133881 -0.11567186 -0.07948756 0.20565657 0.15073813
0.2481878 -0.39015204 0.08084922 -0.1710824 0.30609143 0.15691271 0.07683726 0.29788482
0.30270678 0.16266766 -0.19603743 0.063122995 -0.20611939 -0.3248307 -0.25493902 0.25562966
-0.20380431 0.05297537 0.32367167 0.08395484 -0.2576589 -0.09945392 0.22632287 0.259623
0.055645224 0.104817174 -0.13991342 -0.15705377 0.16814774 0.17191486 0.3233982 -0.4072857
-0.42885154 -0.30266485 0.28753677 0.09546869 0.4237725 -0.1450078 -0.27394703 0.228103
0.0412099 -0.4202474 0.18383333 0.23086855 -0.17992537 0.21199049 -0.034491185 -0.12867372
-0.34365898 -0.25391686 0.021343026 -0.1518897 0.16459398 -0.34017384 0.45850074 0.2860524
00000000: 1fe5 c33e 011d e6be a548 efbe 3cd6 6c3e
00000010: 3e05 e83d f96f b6be 0248 953d 8470 44be
00000020: d8d0 0fbe fdb3 ec3b cc4d 993e 4bd0 ff3c
00000030: 443b 023e 3182 dabd c23d 9ebd 04bc 18bf
00000040: 0d1e e5be b7e7 913e f096 04be 13d4 e3bd
00000050: 96e7 06bf 15db 403e 384c 863e 4bd6 2fbe
00000060: 5a31 623d 888f 893d 430e b53e ba54 263e
00000070: d2d9 d13e 1b78 02be 1762 8b3e e8b7 1bbd
00000080: e4e7 bebe ff80 62bd 0b9b dabe e25f 443e
00000090: 1373 b93e 3540 6d3d d624 91be 299d 313e
000000a0: f84e bcbe 21e4 763d 2ad8 e9be 305f 123e
000000b0: 8fbe ac3e e662 71be 2914 5ebe 25b4 0a3e
000000c0: 8c0d c73e 1e8e 553e ea97 06be 3abb e43d
000000d0: 924c 713e 8026 e83d 42df 163d 3b4e 0e3e
000000e0: bac8 2cbe 5802 29be f97a 0cbc 978b 70be
000000f0: be75 84be a094 babe f603 c3be 7e36 04bb
00000100: 5e90 a63e 8d68 a33e b31a cbbe 2fd3 debe
00000110: 6cdb 56bb 9b31 863e 0058 cdbe 8a1b 6c3e
00000120: 6325 91bd 6ebe 943e 60dd a2be 80b9 983e
00000130: 0db9 d1bc 0055 e4be 5a94 243e 373f 3b3e
00000140: 6bc9 c9bd 1f65 2a3d f86f 9b3e 9ba7 d3be
00000150: 5ee5 ecbd 60ca a2bd a397 523e 195b 1a3e
00000160: f124 7e3e 02c2 c7be 4794 a53d 3a30 2fbe
00000170: 04b8 9c3e baad 203e da5c 9d3d 5c84 983e
00000180: 62fc 9a3e 5a92 263e 09be 48be a146 813d
00000190: f610 53be 3650 a6be 5e87 82be e4e1 823e
000001a0: 14b2 50be b4fc 583d 4bb8 a53e 84f0 ab3d
000001b0: deeb 83be 7fae cbbd 2fc1 673e 4eed 843e
000001c0: 3fec 633d 63aa d63d 7745 0fbe b4d2 20be
000001d0: ec2e 2c3e 730a 303e 7394 a53e c087 d0be
000001e0: 6e92 dbbe e3f6 9abe 0538 933e 1785 c33d
000001f0: b6f8 d83e ed7c 14be c942 8cbe d593 693e
00000200: b6cb 283d ab2a d7be ce3e 3c3e ce68 6c3e
00000210: 5b3e 38be 0914 593e a146 0dbd 0bc3 03be
00000220: 12f4 afbe 6401 82be 92d7 ae3c f988 1bbe
00000230: 538b 283e 442b aebe 9cc0 ea3e 7675 923e

0.bias f4 [16]
-0.29989946 -0.23171975 -0.0752002 0.040357243 -0.0015022474 -0.1319219 -0.4648098 0.05762958
0.02562703 0.11312771 0.098219045 0.19456677 0.26718464 -0.08818875 0.020336708 0.25567415
00000000: 6c8c 99be f147 6dbe 9002 9abd a34d 253d
00000010: 0fe7 c4ba 8916 07be 8dfb edbe ff0c 6c3d
00000020: c7ef d13c 80af e73d 1127 c93d 833c 473e
00000030: 6dcc 883e 4e9c b4bd 2b99 a63c b9e7 823e

3.weight f4 [32, 16, 3, 3]
-0.0735445 -0.23432721 0.004089188 -0.21996292 -0.20695828 -0.048216525 -0.09678609 -0.1445926
-0.03407272 0.001789835 -0.12525815 -0.09747878 0.24736395 -0.055687767 0.004012665 -0.04368587
-0.023683148 0.1826347 -0.09592035 -0.026471687 0.14756662 -0.11202257 -0.0028392805 0.033621565
0.13412237 0.06284406 0.03571946 0.12697981 0.021787599 -0.034002807 0.07876088 -0.038226422
-0.010935257 -0.0055862274 -0.040841673 0.115517 0.20506458 0.10035552 -0.020382442 0.32646653
0.013409825 -0.27608886 0.13748525 -0.0015598505 0.083380714 -0.044136867 -0.07542534 -0.13396943
-0.0642554 0.03969703 -0.037195537 0.0039674845 0.048144255 0.056628264 0.05563492 -0.068650655
-0.037859168 0.017160794 -0.015877895 -0.05397563 -0.106859304 -0.10327266 0.0897694 -0.120292425
-0.0341415 -0.09694463 0.12858438 -0.10295999 -0.048545416 -0.041887328 0.06403433 0.022075627
-0.15840189 -0.12077259 0.065874256 -0.21455437 -0.33968216 -0.10125569 -0.05473014 -0.029831665
0.07474368 0.08158398 -0.038792636 0.026644891 0.033109903 -0.15497823 0.021013306 -0.12961563
-0.03733051 -0.05158989 0.062145013 0.009979286 -0.006241386 -0.027046762 0.036998875 0.039742697
-0.044534553 -0.027737936 0.03833261 0.020011576 0.020604044 0.0019950506 0.16223729 0.111967474
0.03802521 0.0022535014 0.00248664 0.087319195 -0.08796409 -0.082536854 -0.05230619 0.05797459
-0.024101233 -0.02354699 0.031877674 0.06669953 -0.08048741 -0.0026835587 -0.076251455 -0.0074243075
0.3476467 0.01557393 -0.13073593 -0.108644985 -0.03873243 0.05304637 0.035098236 -0.013167475
-0.18199608 0.20005436 -0.11164881 -0.38647556 0.1291422 -0.10165948 -0.18266815 0.11045427
-0.009391082 -0.03149376 0.22554483 -0.038016062 0.017043555 0.14682801 0.045739084 0.0526203
-0.16569501 -0.062861525 -0.026585175 -0.1809411 -0.0118793715 0.14522521 4.954546e-05 -0.08777396
-0.074840754 -0.12396224 -0.21489996 -0.13997647 -0.12686892 -0.18193166 -0.005877384 -0.09049134
-0.17747611 -0.13367033 -0.0639841 -0.09556035 0.10546996 -0.030841086 0.08908215 0.055319503
-0.12556745 -0.029564247 0.1177801 0.0022574163 0.06700884 -0.0983574 0.11937776 0.043415695
0.08427366 -0.003007978 0.07367745 -0.14333351 0.13721547 -0.08759294 0.05041143 0.17474748
0.04456996 -0.035979558 0.031689968 0.086268745 0.007920347 0.031099558 0.023523811 -0.07170546
0.035628907 -0.0036930416 -0.0783263 0.024912678 0.13236433 -0.122798875 -0.038755313 -0.0044491473
0.11227448 -0.06951244 0.04585547 0.0923828 -0.11293283 0.040360626 -0.0039143157 0.09162292
0.0013738069 -0.035820335 -0.015318573 -0.07112361 0.044278722 -0.09904007 -0.1689094 0.0020718894
0.13418785 -0.052774433 0.13432008 0.035470948 0.0195394 0.009716454 0.06931742 0.112511694
-0.035758715 0.05921159 -0.055748925 -0.0611645 -0.0037598787 -0.014604552 -0.06929832 0.042145297
0.12826817 0.11535398 0.03282689 -0.022010338 -0.011021099 0.10218087 0.021878326 -0.14739306
0.09117393 0.08584184 -0.12181117 0.033512022 0.055565406 0.11339935 0.11642448 -0.06424578
0.04933425 0.07695015 -0.022380868 0.109182 0.06306328 -0.098392844 -0.11551406 0.07496924
00000000: 809e 96bd 79f3 6fbe 98fe 853b f63d 61be
00000010: dfec 53be b17e 45bd c937 c6bd 1510 14be
00000020: d68f 0bbd e698 ea3a ac43 00be f4a2 c7bd
00000030: fa4c 7d3e db18 64bd ac7c 833b f4ef 32bd
00000040: 2903 c2bc 9704 3b3e e371 c4bd 27db d8bc
00000050: b41b 173e 176c e5bd 3913 3abb c4b6 093d
00000060: 6057 093e 63b4 803d 924e 123d ff06 023e
00000070: e87b b23c 8746 0bbd 624d a13d 4f93 1cbd
00000080: cb29 33bc ac0c b7bb 9949 27bd 2d94 ec3d
00000090: 73fc 513e 3287 cd3d 14f9 a6bc 9f26 a73e
000000a0: e2b4 5b3c 855b 8dbe efc8 0c3e e673 ccba
000000b0: 82c3 aa3d dcc8 34bd 9a78 9abd 482f 09be
000000c0: 5698 83bd 5a99 223d 595a 18bd ac01 823b
000000d0: e932 453d 0af3 673d 71e1 633d b798 8cbd
000000e0: 3712 1bbd cb94 8c3c 5c12 82bc 8d15 5dbd
000000f0: 0dd9 dabd 9e80 d3bd 05d9 b73d e05b f6bd
00000100: f5d7 0bbd e88a c6bd a0ab 033e b0dc d2bd
00000110: 8fd7 46bd 0c92 2bbd 6e24 833d f2d7 b43c
00000120: 1b34 22be 9f57 f7bd 15e9 863d 24b4 5bbe
00000130: d2ea adbe 255f cfbd b62c 60bd 8961 f4bc
00000140: 3713 993d 8015 a73d 07e5 1ebd 6346 da3c
00000150: 409e 073d 9db2 1ebe 1924 ac3c f6b9 04be
00000160: e0e7 18bd ec4f 53bd c58b 7e3d 2980 233c
00000170: 8a84 ccbb 2c91 ddbc 228c 173d 3dc9 223d
00000180: dd69 36bd ab3a e3bc a802 1d3d 51ef a33c
00000190: d0c9 a83c 65bf 023b 8821 263e 344f e53d
000001a0: 53c0 1b3d 7baf 133b e5f6 223b 68d4 b23d
000001b0: 8426 b4bd 1509 a9bd 043f 56bd c476 6d3d
000001c0: f36f c5bc 9ee5 c0bc 2a92 023d c399 883d
000001d0: 95d6 a4bd a5de 2fbb b929 9cbd 9b47 f3bb
000001e0: c0fe b13e cc29 7f3c a4df 05be 4381 debd
000001f0: e6a5 1ebd 2747 593d 2bc3 0f3d 65bc 57bc
00000200: 2e5d 3abe 0ddb 4c3e 22a8 e4bd 20e0 c5be
00000210: da3d 043e d832 d0bd 5c0d 3bbe d935 e23d
00000220: 0edd 19bc 9aff 00bd 39f5 663e bbb6 1bbd
00000230: ed9e 8b3c 155a 163e e858 3b3d 6288 573d
00000240: f4ab 29be 8bbd 80bd 27c9 d9bc a048 39be
00000250: b2a1 42bc ebb5 143e 08cf 4f38 d5c2 b3bd
00000260: 1c46 99bd eadf fdbd bc0e 5cbe fe55 0fbe
00000270: ede9 01be 4b4c 3abe 1297 c0bb 8653 b9bd
00000280: 4cbc 35be e0e0 08be 190a 83bd 25b5 c3bd
00000290: a200 d83d 72a6 fcbc b470 b63d b496 623d
000002a0: c194 00be b830 f2bc b136 f13d 29f1 133b
000002b0: ee3b 893d 9b6f c9bd 547c f43d a8d4 313d
000002c0: ab97 ac3d 7f21 45bb 34e4 963d 05c6 12be
000002d0: 3682 0c3e ed63 b3bd 377c 4e3d 01f1 323e
000002e0: fe8e 363d 4d5f 13bd 57cd 013d abad b03d
000002f0: 58c4 013c 80c4 fe3c 02b5 c03c 50da 92bd
00000300: 9eef 113d f506 72bb 8a69 a0bd ac15 cc3c
00000310: 848a 073e fa7d fbbd e4bd 1ebd 27ca 91bb
00000320: 2af0 e53d 8a5c 8ebd f2d2 3b3d 3233 bd3d
00000330: 5449 e7bd 2f51 253d a943 80bb cca4 bb3d
00000340: 4f11 b43a 58b8 12bd c1fa 7abc 41a9 91bd
00000350: 9b5d 353d 85d5 cabd 96f6 2cbe 89c8 073b
00000360: 8a68 093e 012a 58bd 348b 093e fc49 113d
00000370: 1711 a03c c331 1f3c 4bf6 8d3d 886c e63d
00000380: bb77 12bd da87 723d fc58 64bd a087 7abd
00000390: 4c68 76bb ee47 6fbc 47ec 8dbd 8ca0 2c3d
000003a0: bb58 033e b53e ec3d 7d75 063d 064f b4bc
000003b0: d791 34bc 3444 d13d 2d3a b33c 35ee 16be
000003c0: 66b9 ba3d d9cd af3d 2278 f9bd e743 093d
000003d0: 8d98 633d eb3d e83d f56f ee3d 4b93 83bd
000003e0: b612 4a3d 0a98 9d3d 1558 b7bc d09a df3d
000003f0: 5227 813d 3082 c9bd a392 ecbd 7989 993d

3.bias f4 [32]
0.059785914 -0.026738537 -0.11796887 0.02609316 -0.04921139 0.023308331 -0.10266823 -0.013786007
0.022204112 -0.061308075 -0.10720118 -0.031858694 -0.037660018 0.026652453 -0.0019045275 -0.03969005
-0.061390962 0.035557304 -0.05846682 -0.14652233 0.01191044 -0.062845215 0.012093482 -0.08303938
0.037728075 -0.06963234 0.070410684 0.0749656 0.033269525 0.0550058 0.05513345 -0.09011547
00000000: 13e2 743d c70a dbbc aa99 f1bd 53c1 d53c
00000010: e291 49bd 1df1 be3c b943 d2bd b4de 61bc
00000020: 66e5 b53c 2d1e 7bbd 4b8c dbbd 437e 02bd
00000030: 6441 1abd 3f56 da3c 57a1 f9ba 0992 22bd
00000040: 1775 7bbd 89a4 113d e77a 6fbd f309 16be
00000050: 0224 433c feb4 80bd bd23 463c 8d10 aabd
00000060: c188 1a3d 669b 8ebd 7a33 903d 9187 993d
00000070: a045 083d c34d 613d 9dd3 613d 768e b8bd

7.weight f4 [128, 1568]
-0.0028444768 -0.030169992 -0.012149016 0.015672507 -0.0072066113 -0.016409902 0.003972728 -0.023446443
0.0069688098 -0.0023181038 0.0022000405 0.009041926 -0.010346045 0.011041539 0.029962484 -0.009444677
0.015807038 0.014767203 0.0013217735 -0.013451776 0.022250645 0.01435272 0.0155314235 -0.017246567
-0.0063922065 -0.02364916 -0.028298203 -0.016561463 -0.0070434907 -0.0077623553 0.012195328 -0.015074962
-0.00900465 0.009367592 -0.008702033 0.012057285 -0.021054052 0.010579144 0.0072738966 0.010168724
-0.028741958 -0.024000542 -0.026110353 -0.023632651 0.004513309 -0.021744458 -0.012211698 0.007877183
0.010803854 0.014045143 -0.014441103 0.009695527 -0.010201693 -0.01734502 -0.013591419 -0.005901263
0.00028900095 -0.02218422 -0.02235635 0.019568715 0.017656058 0.007858737 0.007612028 -0.008270199
-0.004826624 -0.002201393 0.0136665255 0.0092252465 -0.021218147 -0.015441533 0.018938443 -0.018763734
0.014951101 0.009430975 0.01596902 0.017524708 -0.0151444385 0.02253026 0.010081879 0.019447552
0.013791129 -0.016841788 -0.013541936 0.012999227 0.0095580835 0.009140372 -0.010629734 0.0074983127
-0.018908702 -0.013016301 -0.020615842 -0.0030869155 -0.0050813714 0.01744209 -0.020808838 -0.023530478
-0.0041631693 0.001905465 0.02045588 -0.017814167 -0.025171619 0.010898257 0.009972297 -0.016107988
0.008424333 0.016900593 5.7437122e-05 0.014787858 0.0044461126 -0.012525506 -0.006720901 -0.008168578
-0.012798818 0.006939676 -0.0035841044 -0.006184582 -0.003055151 0.002443799 0.007974744 0.01353835
0.0028104694 -0.012948406 0.021244243 0.020264532 -0.0005572747 0.011848972 -0.015467821 -0.023516394
0.0021792918 0.009949133 -0.006701288 -0.020964602 -0.0047543473 -0.01844092 -0.021697963 -0.0065355957
-0.030323992 0.0033162762 -0.025593461 -0.0004554753 -0.005418471 -0.029356314 -0.013203694 -0.0018225334
-0.008229739 -0.012060312 0.018676389 -0.017102703 -0.016309181 -0.010882472 -0.017221335 -0.004288376
-0.007762939 0.014939415 -0.01775649 -0.01888724 -0.021703584 -0.007876058 -0.023008907 -0.025149144
-0.008213328 -0.019351661 0.016812943 -0.017955797 -0.0061805393 -0.009249623 0.008504754 0.0011379141
-0.02709215 0.00034898333 -0.002113932 -0.02677445 -0.016864344 -0.004750779 -0.0035139949 0.018768916
0.0033841846 0.012000032 0.0026102643 -0.012176945 -0.013592962 -0.013433672 0.010393036 0.013561517
-0.02699312 0.0011264242 -0.009714719 -0.003994785 -0.011762084 -0.028632168 -0.025208386 -0.02967883
0.010305815 -0.021580031 -0.029030453 -0.026687821 0.013249548 0.016803076 0.017112697 0.008636542
0.008924624 -0.030894708 0.0026466865 -0.021077823 -0.0048999027 -0.011408479 -0.018129783 0.0061406717
0.0052559744 -0.0064735357 -0.020081358 -0.008324936 -0.023335928 -0.024781384 -0.011881247 -0.0057700146
0.010630924 -0.01599363 -0.018703163 -0.01241095 0.012275693 -0.0072548403 -0.029694105 0.010178708
-0.00047576704 0.022013025 -0.017132983 -0.019920502 0.022651779 0.016477723 -0.0018620236 -0.013702649
0.015369487 -0.027454576 0.0017850931 -0.00737253 0.0004600333 -0.0223845 -0.0016126034 0.0108924955
-0.027738294 -0.009080228 -0.0010204621 0.0028663753 -0.010435709 -0.022270376 0.0020270385 -0.023848176
0.0075563467 0.017112559 0.002526364 -0.0154076265 0.0064736237 0.021972133 -0.009042961 -0.007573005
00000000: 676a 3abb 0f27 f7bc ab0c 47bc a163 803c
00000010: 7025 ecbb 0f6e 86bc a82d 823b c112 c0bc
00000020: 9d5a e43b 54eb 17bb 8e2e 103b 9624 143c
00000030: 7582 29bc 92e7 343c e273 f53c d9bd 1abc
00000040: c37d 813c 23f2 713c 5c3f ad3a d664 5cbc
00000050: fc46 b63c ac27 6b3c 8377 7e3c ac48 8dbc
00000060: b775 d1bb e2bb c1bc a2d1 e7bc e8ab 87bc
00000070: 15cd e6bb 5b5b febb eace 473c f9fc 76bc
00000080: 3d88 13bc 877a 193c f992 0ebc eb8b 453c
00000090: 8c79 acbc 2554 2d3c de59 ee3b b89a 263c
000000a0: 4174 ebbc c99c c4bc 61e5 d5bc 4399 c1bc
000000b0: 61e4 933b 6f21 b2bc 9313 48bc 4d0f 013c
000000c0: a602 313c 991d 663c 609a 6cbc fdd9 1e3c
000000d0: 0025 27bc 2517 8ebc 8bae 5ebc 625f c1bb
000000e0: 0d85 9739 aebb b5bc aa24 b7bc 924e a03c
000000f0: 70a3 903c efc1 003c 526e f93b bb7f 07bc
00000100: a828 9ebb 3f45 10bb 90e9 5f3c 7d25 173c
00000110: aed1 adbc 7cfe 7cbc cb24 9b3c 67b6 99bc
00000120: 76f5 743c 6084 1a3c 76d1 823c fa8f 8f3c
00000130: 6120 78bc 6191 b83c 772e 253c 7950 9f3c
00000140: 30f4 613c caf7 89bc ffde 5dbc b6fa 543c
00000150: 8299 1c3c 80c1 153c 5628 2ebc 68b4 f53b
00000160: 6ce6 9abc 5342 55bc 8ee2 a8bc d94d 4abb
00000170: a281 a6bb b7e2 8e3c 4c77 aabc fdc2 c0bc
00000180: 326b 88bb ccc0 f93a 1793 a73c 04ef 91bc
00000190: b634 cebc 9a8e 323c d862 233c e6f4 83bc
000001a0: 3706 0a3c 1d73 8a3c a4e8 7038 c648 723c
000001b0: b2b0 913b c837 4dbc 013b dcbb 80d5 05bc
000001c0: 22b2 51bc 3966 e33b 4be3 6abb 09a8 cabb
000001d0: ee38 48bb 2528 203b 80a8 023c f5cf 5d3c
000001e0: da2f 383b 8d25 54bc 6808 ae3c ce01 a63c
000001f0: 1216 12ba 3122 423c be6c 7dbc 74a5 c0bc
00000200: 73d2 0e3b b001 233c 7a96 dbbb f5bd abbc
00000210: 5bca 9bbb 6a11 97bc edbf b1bc 8d28 d6bb
00000220: 056a f8bc e255 593b 61a9 d1bc dccc eeb9
00000230: 6e8d b1bb a77c f0bc 4e54 58bc 13e2 eeba
00000240: 07d6 06bc 9d98 45bc 3aff 983c f81a 8cbc
00000250: d59a 85bc 654c 32bc c213 8dbc 8185 8cbb
00000260: 4160 febb 73c4 743c 0f76 91bc 6ab9 9abc
00000270: b7cb b1bc 950a 01bc 2d7d bcbc 9405 cebc
00000280: 3291 06bc 6087 9ebc 4cbb 893c 0918 93bc
00000290: 1f86 cabb bb8b 17bc 8657 0b3c 1026 953a
000002a0: 5bf0 ddbc c0f7 b639 e589 0abb 1756 dbbc
000002b0: 1827 8abc 6cac 9bbb 0d4b 66bb 45c1 993c
000002c0: 32c9 5d3b c89b 443c f810 2b3b cf81 47bc
000002d0: 04b5 5ebc e718 5cbc 8d47 2a3c 2031 5e3c
000002e0: ad20 ddbc 86a4 933a 7c2a 1fbc afe6 82bb
000002f0: c2b5 40bc 028e eabc d181 cebc 0521 f3bc
00000300: b9d9 283c 9bc8 b0bc 46d1 edbc 6ba0 dabc
00000310: a214 593c 9ba6 893c ed2f 8c3c 4880 0d3c
00000320: 9638 123c e616 fdbc 0874 2d3b 66ab acbc
00000330: 5d8f a0bb a1ea 3abc e984 94bc b037 c93b
00000340: 4f3a ac3b f41f d4bb a981 a4bc 5065 08bc
00000350: fd2a bfbc 5402 cbbc 90a9 42bc 6412 bdbb
00000360: 542d 2e3c 1305 83bc 6037 99bc 4c57 4bbc
00000370: fd1f 493c 03ba edbb 0d41 f3bc 98c4 263c
00000380: 5f70 f9b9 a954 b43c 785a 8cbc 5230 a3bc
00000390: 3990 b93c 4afc 863c 250f f4ba 1381 60bc
000003a0: 4dd0 7b3c 6be8 e0bc c9f9 e93a 4495 f1bb
000003b0: a030 f139 b35f b7bc fe5d d3ba 7076 323c
000003c0: 6b3b e3bc 3dc5 14bc 07c1 85ba ccd9 3b3b
000003d0: 89fa 2abc 5d70 b6bc 10d8 043b 405d c3bc
000003e0: 3b9b f73b a32f 8c3c 5b91 253b 4570 7cbc
000003f0: b120 d43b e7fe b33c ed28 14bc f826 f8bb

7.bias f4 [128]
-0.022523846 0.013026947 -0.007991664 0.037962884 0.009765236 -0.0030895981 0.016797604 0.016290337
0.011816772 0.018507598 -0.016919747 -0.027611656 0.012998182 -0.0054568998 -0.008946573 0.0024111113
0.012892134 -0.0034367847 -0.011841733 -0.007932448 -0.000991118 0.030637091 0.0088423295 0.038686093
0.020291623 0.045944627 0.023706378 0.038938344 0.011588741 -0.022037627 -0.02845643 0.023974285
-0.020150881 0.058471277 0.026587281 -0.024702605 0.02273098 0.04103077 -0.02140102 -0.0098696165
0.044110283 -0.00015197264 0.017537743 0.023991168 -0.033386447 0.04271438 -0.030131167 0.014860349
0.040689904 -0.010342674 -0.0015613211 -0.003939285 0.012977799 0.026565492 0.0020839947 0.013223896
-0.0051126024 0.017616834 0.031517945 -0.00062135473 -0.004280048 0.011702893 -0.010927267 -0.027834484
-0.016175734 0.007984353 0.0070288763 0.011666619 -0.012275011 -0.0012436358 0.0009894625 0.033768915
0.0141582005 -0.015888048 -0.026458116 -0.010974874 -0.0007504455 0.02756388 0.0048350436 -0.027920598
0.007757006 0.0061797565 0.0358474 -0.0115020685 0.028970743 0.020757347 0.020926828 0.013561158
0.015765496 -0.019595977 -0.015823448 -0.018852562 0.0004891765 0.044954013 0.0017254824 0.043724243
0.008133026 0.0118964985 -0.050961617 0.011469801 -0.027603658 0.0012822376 -0.018794993 0.010043914
0.0024026483 0.008884227 -0.0417739 0.03033586 0.014651925 -0.0036404869 -0.002239444 -0.01048752
-0.016843496 0.019747728 -0.0009368431 0.02911241 0.014226314 0.006211427 -0.020594494 0.010149627
-0.000324444 0.011927476 0.029815556 -0.007332272 -0.02651978 0.044320043 0.06202441 0.02726713
00000000: ee83 b8bc fa6e 553c 78ef 02bc f87e 1b3d
00000010: 5efe 1f3c db7a 4abb 219b 893c 5073 853c
00000020: 229b 413c 3f9d 973c 489b 8abc d731 e2bc
00000030: 54f6 543c cbcf b2bb a694 12bc bc03 1e3b
00000040: 8739 533c ae3b 61bb d403 42bc 19f7 01bc
00000050: 67e8 81ba a3fa fa3c 6bdf 103c 4f75 1e3d
00000060: 9e3a a63c 6f30 3c3d e133 c23c d07d 1f3d
00000070: b4de 3d3c 4188 b4bc 761d e9bc b865 c43c
00000080: 7613 a5bc 947f 6f3d 92cd d93c 1e5d cabc
00000090: 5236 ba3c e10f 283d 3151 afbc 2cb4 21bc
000000a0: fcac 343d d85a 1fb9 50ab 8f3c 2089 c43c
000000b0: 3ac0 08bd 46f5 2e3d a3d5 f6bc d278 733c
000000c0: 75aa 263d 5274 29bc 3ea5 ccba 1e15 81bb
000000d0: d6a0 543c e09f d93c a193 083b 0aa9 583c
000000e0: 9e87 a7bb 2e51 903c f618 013d 69e2 22ba
000000f0: a53f 8cbb 7ebd 3f3c 4808 33bc 2505 e4bc
00000100: f982 84bc ced0 023c 7d52 e63b 5925 3f3c
00000110: 211d 49bc 7e01 a3ba dab0 813a 4651 0a3d
00000120: ccf7 673c a727 82bc b1be d8bc f5cf 33bc
00000130: 8cb9 44ba a5cd e13c 496f 9e3b bdb9 e4bc
00000140: 7c2e fe3b 8e7f ca3b b9d4 123d 2c73 3cbc
00000150: 0d54 ed3c 500b aa3c bd6e ab3c 9f2f 5e3c
00000160: a426 813c be87 a0bc 2da0 81bc b070 9abc
00000170: 143c 003a b321 383d 9529 e23a 3118 333d
00000180: 6240 053c 88e9 423c 21bd 50bd d5eb 3b3c
00000190: 1121 e2bc c110 a83a f5f7 99bc 3b8f 243c
000001a0: c075 1d3b 268f 113c 1c1b 2bbd e982 f83c
000001b0: a10e 703c 3c95 6ebb a3c3 12bb d9d3 2bbc
000001c0: 5ffb 89bc fdc5 a13c 7a96 75ba 267d ee3c
000001d0: 7c15 693c 3a89 cb3b c9b5 a8bc 9f4a 263c
000001e0: 231a aab9 766b 433c c13f f43c 8e43 f0bb
000001f0: 0240 d9bc ef88 353d 4f0d 7e3d 515f df3c

9.weight f4 [10, 128]
-0.07557807 -0.079874605 0.114053406 -0.22203232 0.059149418 0.088324636 -0.16309308 -0.042632494
-0.053084444 0.123349145 0.0033696033 -0.0717892 -0.12084593 -0.022832625 -0.12792036 -0.0469922
-0.06669492 -0.036671173 -0.092703246 -0.09591882 -0.052417506 0.061986003 -0.0944238 0.062283807
0.0072659273 0.09998769 0.05107543 0.0693735 -0.083218046 0.020863943 -0.038555797 0.026848922
0.07786098 -0.12058325 -0.023050979 -0.05312713 0.10637843 0.07441403 -0.037891272 -0.08882755
-0.093568265 0.0009595085 0.05211239 0.019384585 -0.064515546 0.06342688 -0.017431736 0.0815746
-0.071899414 0.03372052 0.07138038 -0.01645282 -0.0418944 -0.0100764055 -0.029964883 0.041570373
-0.13723512 -0.011553448 -0.065407276 0.099205546 0.1592114 -0.039140496 0.05935028 -0.16744599
0.09471869 -0.062221006 -0.051406194 -0.13727142 0.07857951 -0.05213593 0.021850742 0.016356625
0.021322297 -0.04111266 0.015440849 0.101589665 0.026067832 0.081286766 -0.06549324 -0.04539397
-0.036717165 -0.03313373 0.0492747 -0.029303009 0.03976664 -0.046436317 -0.17924795 -0.087253444
0.0526968 -0.06336982 -0.07957979 -0.02954692 0.114042096 0.079698786 -0.00041101617 -0.17814735
0.077686824 -0.093207404 0.033769555 0.06681549 -0.064949416 -0.028189454 -0.0017950762 0.064953856
-0.040798616 -0.0027564743 0.0018201753 0.05412003 -0.026843255 0.035662368 -0.025883311 -0.053230006
-0.024933783 0.124987185 0.033642434 0.043145325 0.09890908 0.052869234 -0.07587514 -0.06201021
-0.06849574 -0.032076247 0.07278845 -0.11532177 0.053760316 0.020637257 0.06841437 0.11901875
0.044630595 -0.12168718 -0.13604239 -0.105276085 0.039940596 -0.03150242 0.10172801 -0.09247451
0.08510037 -0.013639352 0.029128624 0.040320244 0.10258672 -0.08875742 -0.16106224 0.118763745
0.06466084 -0.09480229 -0.063419536 0.027715469 -0.054521546 0.014905368 0.004532691 -0.12849812
0.10687643 -0.050853398 0.026150906 -0.17289764 -0.06723072 -0.024033844 -0.05803326 0.044033516
0.054515433 0.074142925 -0.099899925 -0.048123326 -0.17121243 0.09045822 0.039336998 0.03694209
-0.06055488 -0.005663624 0.042869993 -0.083103925 -0.05521936 -0.20909245 0.07078083 0.12337025
0.068411395 -0.1446861 -0.057392433 0.0063553727 -0.23673339 0.10121335 -0.18504511 -0.2118624
-0.18313646 0.016231703 -0.09187086 0.061559323 -0.056470744 0.11045097 0.050418243 0.050057843
0.054024324 0.06332613 -0.21292299 0.13686715 -0.043678354 -0.05521727 -0.1777758 -0.08842165
-0.14656578 0.073976174 -0.071989335 -0.055141367 0.14025168 0.038249355 -0.017740935 0.027792135
-0.0080574 0.03943672 0.088555 -0.049631122 -0.13962938 0.034652524 -0.14187257 -0.07210788
0.039257646 0.09814893 0.02442496 0.15465191 -0.13522412 0.07600732 -0.04457007 0.049929157
-0.018452652 0.01051705 -0.035844285 0.059734132 0.039371047 0.12149228 -0.04446838 -0.03861368
-0.038652007 -0.12663905 0.054649226 -0.09432331 -0.015284619 -0.070294976 0.07554058 -0.20533429
-0.024726594 0.11553983 0.07453757 -0.093698524 0.03149629 -0.0027952834 -0.073505044 -0.010770898
-0.0061811423 0.061670788 0.03558669 0.11798006 0.050704423 -0.03091627 -0.10984122 -0.21738833
00000000: adc8 9abd 4c95 a3bd d594 e93d 715c 63be
00000010: a946 723d 8ce3 b43d df01 27be 699f 2ebd
00000020: 136f 59bd 7a9e fc3d 90d4 5c3b 3706 93bd
00000030: 127e f7bd 7c0b bbbc 8efd 02be e57a 40bd
00000040: 5997 88bd 8334 16bd 33db bdbd 1671 c4bd
00000050: bdb3 56bd 09e5 7d3d 4461 c1bd 4e1d 7f3d
00000060: 0417 ee3b 59c6 cc3d 7834 513d b213 8e3d
00000070: 396e aabd dcea aa3c afec 1dbd 45f2 db3c
00000080: 9475 9f3d 5af4 f6bd 68d5 bcbc d59b 59bd
00000090: efdc d93d 6266 983d e133 1bbd 38eb b5bd
000000a0: b8a0 bfbd 8787 7b3a cd73 553d 6ccc 9e3c
000000b0: ba20 84bd f4e5 813d 00cd 8ebc 9510 a73d
000000c0: 0040 93bd 871e 0a3d e02f 923d 10c8 86bc
000000d0: 7699 2bbd 8217 25bc ea78 f5bc b245 2a3d
000000e0: 5d87 0cbe ac4a 3dbc 40f4 85bd 472c cb3d
000000f0: 5008 233e c951 20bd 4719 733d f676 2bbe
00000100: dffb c13d 74db 7ebd 4d8f 52bd e190 0cbe
00000110: 4bee a03d 7c8c 55bd 5400 b33c 54fe 853c
00000120: 19ac ae3c c065 28bd 9dfb 7c3c 3e0e d03d
00000130: 358c d53c ad79 a63d 5221 86bd 07ef 39bd
00000140: bd64 16bd 3cb7 07bd 45d4 493d dd0c f0bc
00000150: 58e2 223d 0234 3ebd c68c 37be efb1 b2bd
00000160: 9ad8 573d 09c8 81bd bbfa a2bd 620c f2bc
00000170: e78e e93d 1e39 a33d a87d d7b9 426c 36be
00000180: 451a 9f3d 86e3 bebd f251 0a3d 8fd6 883d
00000190: 3304 85bd 92ed e6bc c348 ebba 8706 853d
000001a0: 731c 27bd f7a5 34bb f392 ee3a f7ac 5d3d
000001b0: 63e6 dbbc b412 123d 3d09 d4bc b507 5abd
000001c0: ef41 ccbc 48f9 ff3d a6cc 093d 27b9 303d
000001d0: d890 ca3d 698d 583d 6d64 9bbd 6bfe 7dbd
000001e0: 7f47 8cbd 6262 03bd 1c12 953d d22d ecbd
000001f0: c733 5c3d 770f a93c d51c 8c3d 1ac0 f33d
00000200: 92ce 363d 2137 f9bd b24e 0bbe fd9a d7bd
00000210: c098 233d ae08 01bd c656 d03d 4763 bdbd
00000220: 1a49 ae3d 9777 5fbc 279f ee3c d726 253d
00000230: fc18 d23d 73c6 b5bd 80ed 24be 683a f33d
00000240: e76c 843d b427 c2bd 1ae2 81bd 8d0b e33c
00000250: fc51 5fbd a535 743c f886 943b 0395 03be
00000260: 08e2 da3d a74b 50bd 6d3a d63c 140c 31be
00000270: 42b0 89bd a0e2 c4bc 49b4 6dbd 7d5c 343d
00000280: 934b 5f3d 3fd8 973d 5598 ccbd f71c 45bd
00000290: 5052 2fbe 2942 b93d d51f 213d 9750 173d
000002a0: 6508 78bd ec95 b9bb 7298 2f3d 6432 aabd
000002b0: b22d 62bd 551c 56be 8af5 903d 8ba9 fc3d
000002c0: 461b 8c3d 9828 14be 5414 6bbd bb40 d03b
000002d0: 3d6a 72be f248 cf3d 777c 3dbe 75f2 58be
000002e0: 2088 3bbe 59f8 843c ca26 bcbd a125 7c3d
000002f0: de4d 67bd 1e34 e23d 5c83 4e3d 7409 4d3d
00000300: 9c48 5d3d 21b1 813d 7c08 5abe e726 0c3e
00000310: 13e8 32bd 812b 62bd dc0a 36be 6916 b5bd
00000320: 5715 16be d280 973d 256f 93bd eadb 61bd
00000330: 239e 0f3e 5bab 1c3d 7055 91bc 55ac e33c
00000340: 2f03 04bc 6688 213d 535c b53d 014a 4bbd
00000350: 01fb 0ebe ceef 0d3d 0b47 11be 4cad 93bd
00000360: a0cc 203d 4e02 c93d db16 c83c 125d 1e3e
00000370: 3178 0abe baa9 9b3d 1b8f 36bd 8482 4c3d
00000380: 042a 97bc b44f 2c3c 75d1 12bd c7ab 743d
00000390: 8943 213d f2d0 f83d 7a24 36bd 6129 1ebd
000003a0: 9151 1ebd abad 01be ded7 5f3d 942c c1bd
000003b0: 576c 7abc d0f6 8fbd 05b5 9a3d 2743 52be
000003c0: 6d8f cabc 25a0 ec3d 27a7 983d 03e5 bfbd
000003d0: 4102 013d 1331 37bb d089 96bd 6c78 30bc
000003e0: 2e8b cabb 829a 7c3d 59c3 113d 889f f13d
000003f0: 71af 4f3d 1e44 fdbc 6ff4 e0bd 0c9b 5ebe

9.bias f4 [10]
-0.068111196 -0.09404919 0.10085956 -0.01595632 0.03963725 -0.050646864 -0.031750947 0.08830357
0.046690974 -0.042968187
00000000: e27d 8bbd dd9c c0bd 758f ce3d d4b6 82bc
00000010: ab5a 223d 1673 4fbd 480d 02bd 81d8 b43d
00000020: 093f 3f3d 69ff 2fbd
